# Ultralytics 🚀 AGPL-3.0 License - https://ultralytics.com/license

# Ultralytics YOLO11 object detection model with P3/8 - P5/32 outputs
# Model docs: https://docs.ultralytics.com/models/yolo11
# Task docs: https://docs.ultralytics.com/tasks/detect

# Parameters
inplace: False
nc: 1 # number of classes
scales: # model compound scaling constants, i.e. 'model=yolo11n.yaml' will call yolo11.yaml with scale 'n'
  # [depth, width, max_channels]
  n: [0.50, 0.25, 1024] # summary: 319 layers, 2624080 parameters, 2624064 gradients, 6.6 GFLOPs
  s: [0.50, 0.50, 1024] # summary: 319 layers, 9458752 parameters, 9458736 gradients, 21.7 GFLOPs
  m: [0.50, 1.00, 512] # summary: 409 layers, 20114688 parameters, 20114672 gradients, 68.5 GFLOPs
  l: [1.00, 1.00, 512] # summary: 631 layers, 25372160 parameters, 25372144 gradients, 87.6 GFLOPs
  x: [1.00, 1.50, 512] # summary: 631 layers, 56966176 parameters, 56966160 gradients, 196.0 GFLOPs

ch: 6
# # YOLOv8.0n backbone
# backbone:
#   # [from, repeats, module, args]
#   - [-1, 1, Silence, []]  # 0-P1/2
#     # visible
#   - [ -1, 1, SilenceChannel, [ 0,3 ] ]  # 1-P1/2
#   - [ 0, 1, SilenceChannel, [ 3,6 ] ]  # 2-P1/2
#   # - [ [1,2], 1, CMSSM, [ 'b1', 'rgbt', 1, 'CM-SSM-offset-rgbCenter' ] ]  #3
#   - [ [1,2], 1, CMSSM, [ 'b1', 'rgbt', 1, 'CM-SSM-offset-rgbCenter' ] ]  #3
#   - [ -1, 1, SilenceList, [ 64, 2 ] ]  # 4-P1/2  rgb预测中心
#   - [ 3, 1, SilenceList, [ 64, 1 ] ]  # 5-P1/2  偏移
#   - [ 3, 1, SilenceList, [ 64, 0 ] ]  # 6-P1/2
#   - [ -1, 1, SilenceList, [ 64, 0 ] ]  # 7P1/2
#   - [ 6, 1, SilenceList, [ 128, 1 ] ]  # 8-P1/2
#   - [ 6, 1, SilenceList, [ 256, 2 ] ]  # 9-P1/2

#   - [ -1, 1, SPPF, [ 256, 5 ] ] # 10
#   - [ -1, 2, C2PSA, [ 256 ] ] # 11

# # YOLO11n head
# head:
#   - [-1, 1, nn.Upsample, [None, 2, "nearest"]]
#   - [[-1, 8], 1, Concat, [1]] # cat backbone P4
#   - [-1, 2, C3k2, [128, False]] # 14

#   - [-1, 1, nn.Upsample, [None, 2, "nearest"]]
#   - [[-1, 7], 1, Concat, [1]] # cat backbone P3
#   - [-1, 2, C3k2, [64, False]] # 17 (P3/8-small)

#   - [-1, 1, Conv, [64, 3, 2]]
#   - [[-1, 14], 1, Concat, [1]] # cat head P4
#   - [-1, 2, C3k2, [128, False]] # 20 (P4/16-medium)

#   - [-1, 1, Conv, [128, 3, 2]]
#   - [[-1, 11], 1, Concat, [1]] # cat head P5
#   - [-1, 2, C3k2, [256, True]] # 23(P5/32-large)

#   - [[17, 20, 23, 5, 4], 1, Detect, [nc]] # Detect(P3, P4, P5)


backbone:
  # [from, repeats, module, args]
  - [-1, 1, Silence, []]  # 0-P1/2
  - [0, 1, SilenceChannel, [0,3]]  # 1-P1/2
  - [-1, 1, Conv, [64, 3, 2]] # 2-P1/2
  - [-1, 1, Conv, [128, 3, 2]] # 3-P2/4
  - [-1, 2, C3k2, [256, False, 0.25]]
  - [-1, 1, Conv, [256, 3, 2]] # 5-P3/8
  - [-1, 2, C3k2, [512, False, 0.25]]
  - [-1, 1, Conv, [512, 3, 2]] # 7-P4/16
  - [-1, 2, C3k2, [512, True]]
  - [-1, 1, Conv, [1024, 3, 2]] # 9-P5/32
  - [-1, 2, C3k2, [1024, True]] # 10

  - [ 0, 1, SilenceChannel, [ 3,6 ] ]  # 11-P1/2
  - [ -1, 1, Conv, [ 64, 3, 2 ] ] # 12-P1/2
  - [ -1, 1, Conv, [ 128, 3, 2 ] ] # 13-P2/4
  - [ -1, 2, C3k2, [ 256, False, 0.25 ] ]
  - [ -1, 1, Conv, [ 256, 3, 2 ] ] # 15-P3/8
  - [ -1, 2, C3k2, [ 512, False, 0.25 ] ]
  - [ -1, 1, Conv, [ 512, 3, 2 ] ] # 17-P4/16
  - [ -1, 2, C3k2, [ 512, True ] ]
  - [ -1, 1, Conv, [ 1024, 3, 2 ] ] # 19-P5/32
  - [ -1, 2, C3k2, [ 1024, True ] ]  #20

#   - [ 6, 1, CenterPredictor, [128]]  #  21  ##融合层1
#   - [ [6, 16], 1, RGBAdjuster, [128]]  #  22
#   - [ -1, 1, SilenceList, [ 128, 0 ] ]  # 23
#   - [ 22, 1, SilenceList, [ 128, 1 ] ]  # 24
#   - [ 22, 1, SilenceList, [ 128, 2 ] ]  # 25
#   - [ [23, 24], 1, Fusion_Module, [128]]  # 26

#   - [ 8, 1, CenterPredictor, [128]]  #  27  ##融合层2
#   - [ [8, 18], 1, RGBAdjuster, [128]]  #  28
#   - [ -1, 1, SilenceList, [ 128, 0 ] ]  # 29
#   - [ 28, 1, SilenceList, [ 128, 1 ] ]  # 30
#   - [ 28, 1, SilenceList, [ 128, 2 ] ]  # 31
#   - [ [29, 30], 1, Fusion_Module, [128]]  #  32

#   - [ 10, 1, CenterPredictor, [256]]  #  33  ##融合层3
#   - [ [10, 20], 1, RGBAdjuster, [256]]  #  34
#   - [ -1, 1, SilenceList, [ 256, 0 ] ]  # 35
#   - [ 34, 1, SilenceList, [ 256, 1 ] ]  # 36
#   - [ 34, 1, SilenceList, [ 256, 2 ] ]  # 37
#   - [ [35, 36], 1, Fusion_Module, [256]]  #  38

#   - [ -1, 1, SPPF, [ 1024, 5 ] ] # 39
#   - [ -1, 2, C2PSA, [ 1024 ] ] # 40
# # YOLO11n head
# head:
#   - [-1, 1, nn.Upsample, [None, 2, "nearest"]]
#   - [[-1, 32], 1, Concat, [1]] # cat backbone P4
#   - [-1, 2, C3k2, [512, False]] # 43

#   - [-1, 1, nn.Upsample, [None, 2, "nearest"]]
#   - [[-1, 26], 1, Concat, [1]] # cat backbone P3
#   - [-1, 2, C3k2, [256, False]] # 46 (P3/8-small)

#   - [-1, 1, Conv, [256, 3, 2]]
#   - [[-1, 43], 1, Concat, [1]] # cat head P4
#   - [-1, 2, C3k2, [512, False]] # 49 (P4/16-medium)

#   - [-1, 1, Conv, [512, 3, 2]]
#   - [[-1, 25], 1, Concat, [1]] # cat head P5
#   - [-1, 2, C3k2, [1024, True]] # 52 (P5/32-large)

#   - [[46, 49, 52, 25, 31, 37, 21, 27, 33], 1, Detect, [nc]] # Detect(P3, P4, P5) ,偏移量，rgb预测




# # # 没有CenterPredictor、RGBAdjuster
#   - [ [6, 16], 1, Fusion_Module, [128]]  # 21
#   - [ [8, 18], 1, Fusion_Module, [128]]  #  22
#   - [ [10, 20], 1, Fusion_Module, [256]]  #  23
#   - [ -1, 1, SPPF, [ 1024, 5 ] ] # 24
#   - [ -1, 2, C2PSA, [ 1024 ] ] # 25

# # YOLO11n head
# head:
#   - [-1, 1, nn.Upsample, [None, 2, "nearest"]]
#   - [[-1, 22], 1, Concat, [1]] # cat backbone P4
#   - [-1, 2, C3k2, [512, False]] # 28

#   - [-1, 1, nn.Upsample, [None, 2, "nearest"]]
#   - [[-1, 21], 1, Concat, [1]] # cat backbone P3
#   - [-1, 2, C3k2, [256, False]] # 31 (P3/8-small)

#   - [-1, 1, Conv, [256, 3, 2]]
#   - [[-1, 28], 1, Concat, [1]] # cat head P4
#   - [-1, 2, C3k2, [512, False]] # 34 (P4/16-medium)

#   - [-1, 1, Conv, [512, 3, 2]]
#   - [[-1, 25], 1, Concat, [1]] # cat head P5
#   - [-1, 2, C3k2, [1024, True]] # 37 (P5/32-large)

#   - [[31, 34, 37], 1, Detect, [nc]] # Detect(P3, P4, P5)


# # 没有CenterPredictor
  - [ [6, 16], 1, RGBAdjuster, [128]]  #  21
  - [ -1, 1, SilenceList, [ 128, 0 ] ]  # 22
  - [ 21, 1, SilenceList, [ 128, 1 ] ]  # 23
  - [ 21, 1, SilenceList, [ 128, 2 ] ]  # 24
  - [ [22, 23], 1, Fusion_Module, [128]]  # 25

  - [ [8, 18], 1, RGBAdjuster, [128]]  #  26
  - [ -1, 1, SilenceList, [ 128, 0 ] ]  # 27
  - [ 26, 1, SilenceList, [ 128, 1 ] ]  # 28
  - [ 26, 1, SilenceList, [ 128, 2 ] ]  # 29
  - [ [27, 28], 1, Fusion_Module, [128]]  #  30

  - [ [10, 20], 1, RGBAdjuster, [256]]  #  31
  - [ -1, 1, SilenceList, [ 256, 0 ] ]  # 32
  - [ 31, 1, SilenceList, [ 256, 1 ] ]  # 33
  - [ 31, 1, SilenceList, [ 256, 2 ] ]  # 34
  - [ [32, 33], 1, Fusion_Module, [256]]  #  35

  - [ -1, 1, SPPF, [ 1024, 5 ] ] # 36
  - [ -1, 2, C2PSA, [ 1024 ] ] # 37
# YOLO11n head
head:
  - [-1, 1, nn.Upsample, [None, 2, "nearest"]]
  - [[-1, 30], 1, Concat, [1]] # cat backbone P4
  - [-1, 2, C3k2, [512, False]] # 40

  - [-1, 1, nn.Upsample, [None, 2, "nearest"]]
  - [[-1, 25], 1, Concat, [1]] # cat backbone P3
  - [-1, 2, C3k2, [256, False]] # 43 (P3/8-small)

  - [-1, 1, Conv, [256, 3, 2]]
  - [[-1, 40], 1, Concat, [1]] # cat head P4
  - [-1, 2, C3k2, [512, False]] # 46 (P4/16-medium)

  - [-1, 1, Conv, [512, 3, 2]]
  - [[-1, 37], 1, Concat, [1]] # cat head P5
  - [-1, 2, C3k2, [1024, True]] # 49 (P5/32-large)

  - [[43, 46, 49, 24, 29, 34], 1, Detect, [nc]] # Detect(P3, P4, P5),偏移量