# Ultralytics 🚀 AGPL-3.0 License - https://ultralytics.com/license

# YOLO12 object detection model with P3/8 - P5/32 outputs
# Model docs: https://docs.ultralytics.com/models/yolo12
# Task docs: https://docs.ultralytics.com/tasks/detect

# Parameters
nc: 1 # number of classes
scales: # model compound scaling constants, i.e. 'model=yolo12n.yaml' will call yolo12.yaml with scale 'n'
  # [depth, width, max_channels]
  n: [0.50, 0.25, 1024, 6] # summary: 272 layers, 2,602,288 parameters, 2,602,272 gradients, 6.7 GFLOPs
  s: [0.50, 0.50, 1024, 8] # summary: 272 layers, 9,284,096 parameters, 9,284,080 gradients, 21.7 GFLOPs
  m: [0.50, 1.00, 512, 10] # summary: 292 layers, 20,199,168 parameters, 20,199,152 gradients, 68.1 GFLOPs
  l: [1.00, 1.00, 512, 10] # summary: 488 layers, 26,450,784 parameters, 26,450,768 gradients, 89.7 GFLOPs
  x: [1.00, 1.50, 512, 12] # summary: 488 layers, 59,210,784 parameters, 59,210,768 gradients, 200.3 GFLOPs

ch: 6

# YOLO12n backbone
backbone:
  # [from, repeats, module, args]
  - [-1, 1, Silence, []]  # 0-P1/2
  - [0, 1, SilenceChannel, [0,3]]  # 0-P1/2
  - [-1, 1, Conv, [64, 3, 2]] # 2-P1/2
  - [-1, 1, Conv, [128, 3, 2]] # 3-P2/4
  - [-1, 2, C3k2, [256, False, 0.25]]
  - [-1, 1, Conv, [256, 3, 2]] # 5-P3/8
  - [-1, 2, C3k2, [512, False, 0.25]]
  - [-1, 1, Conv, [512, 3, 2]] # 7-P4/16
  - [-1, 4, A2C2f, [512, True, 4]]
  - [-1, 1, Conv, [1024, 3, 2]] # 9-P5/32
  - [-1, 4, A2C2f, [1024, True, 1]] # 10

  - [0, 1, SilenceChannel, [3,6]]  # 11-P1/2
  - [-1, 1, Conv, [64, 3, 2]] # 12-P1/2
  - [-1, 1, Conv, [128, 3, 2]] # 13-P2/4
  - [-1, 2, C3k2, [256, False, 0.25]]
  - [-1, 1, Conv, [256, 3, 2]] # 15-P3/8
  - [-1, 2, C3k2, [512, False, 0.25]]
  - [-1, 1, Conv, [512, 3, 2]] # 17-P4/16
  - [-1, 4, A2C2f, [512, True, 4]]
  - [-1, 1, Conv, [1024, 3, 2]] # 19-P5/32
  - [-1, 4, A2C2f, [1024, True, 1]] # 20

  # - [ [2,4,6,8,10, 12,14,16,18,20], 1, RGBAdjuster, [496, 3, 1, True]]  #  21 Affine
  # - [ [2,4,6,8,10, 12,14,16,18,20], 1, RGBAdjuster, [496, 3, 1, True, True, False, False, False]]  #  21 Affine+centerpoint
  # - [ [2,4,6,8,10, 12,14,16,18,20], 1, RGBAdjuster, [496, 3, 1, True, False, True, False, False]]  #  21 Affine+uav_exist
  # - [ [2,4,6,8,10, 12,14,16,18,20], 1, RGBAdjuster, [496, 3, 1, True, False, False, True, False]]  #  21 Affine+weight_map
  # - [ [2,4,6,8,10, 12,14,16,18,20], 1, RGBAdjuster, [496, 3, 1, True, False, False, False, True]]  #  21 Affine+local_point
  # - [ [2,4,6,8,10, 12,14,16,18,20], 1, RGBAdjuster, [496, 3, 1, False, False, True]]  #  21 uav_exist
  - [ [2,4,6,8,10, 12,14,16,18,20], 1, RGBAdjuster, [592, 3, 1, True, False, False, False, False, 5]]  #  21 affine

  - [ -1, 1, SilenceList, [ 16, 0 ] ]  # 22 #rgb
  - [ 21, 1, SilenceList, [ 16, 1 ] ]  # 23 #rgb—centerpoints
  - [ 21, 1, SilenceList, [ 16, 2 ] ]  # 24 #rgb-uav_exist
  - [ 21, 1, SilenceList, [ 16, 3 ] ]  # 25 #rgb-ir-offsets

  - [ 22, 1, SilenceList, [ 16, 0 ] ]  # 26 #第一层.已经对齐
  - [ 22, 1, SilenceList, [ 64, 1 ] ]  # 27 #第一层.已经对齐
  - [ 22, 1, SilenceList, [ 128, 2 ] ]  # 28 #第一层.已经对齐
  - [ 22, 1, SilenceList, [ 128, 3 ] ]  # 29 #第二层
  - [ 22, 1, SilenceList, [ 256, 4 ] ]  # 30 #第三层

  - [[28, 16], 1, Concat, [1]]  # cat backbone P3   31
  - [[29, 18], 1, Concat, [1]]  # cat backbone P4   32
  - [[30, 20], 1, Concat, [1]]  # cat backbone P5   33

  # - [ 22, 1, SilenceList, [ 16, 0 ] ]  # 26 #第一层.已经对齐
  # - [ 22, 1, SilenceList, [ 32, 1 ] ]  # 27 #第二层
  # - [ 22, 1, SilenceList, [ 64, 2 ] ]  # 28 #第三层
  # - [ 22, 1, SilenceList, [ 128, 3 ] ]  # 29 #第四层
  # - [ 22, 1, SilenceList, [ 256, 4 ] ]  # 30 #第五层


  # - [[6, 16], 1, Concat, [1]]  # cat backbone P3   21
  # - [[8, 18], 1, Concat, [1]]  # cat backbone P4   22
  # - [[10, 20], 1, Concat, [1]]  # cat backbone P5   23

# YOLO12n head
head:
  #   # Semantic Collecting
  - [28, 1, nn.AvgPool2d, [4, 4, 0]] # 34
  - [29, 1, nn.AvgPool2d, [2, 2, 0]] # 35
  - [[34, 35, 30], 1, Concat, [1]]  # cat 36
  - [-1, 1, Conv, [512, 1, 1]] # 37
  # infrared
  - [16, 1, nn.AvgPool2d, [4, 4, 0]] # 38
  - [18, 1, nn.AvgPool2d, [2, 2, 0]] # 39
  - [[38,39,20], 1, Concat, [1]]  # cat 40
  - [-1, 1, Conv, [512, 1, 1]] # 41

  # Hypergraph Computation
  - [[37,41], 1, HyperComputeModule, [512]] # 42 #
  # - [-1, 2, A2C2f, [256, False, -1]] # 47
  - [-1, 1, nn.Upsample, [None, 2, "nearest"]] #43 h
  - [-1, 1, nn.Upsample, [None, 2, "nearest"]] #44 h
  - [33, 1, nn.Upsample, [None, 2, "nearest"]] #45
  # - [[-1, 32, 47], 1, Concat, [1]] # cat backbone P4
  - [[-1, 43, 32], 1, Concat, [1]] # cat backbone P4 #46
  - [-1, 2, A2C2f, [512, False, -1]] # 47
  # - [-1, 2, A2C2f, [256, False, -1]] # 47

  - [-1, 1, nn.Upsample, [None, 2, "nearest"]] # 48
  - [[-1, 44, 31], 1, Concat, [1]] # cat backbone P3
  - [-1, 2, A2C2f, [256, False, -1]] # 50

  - [-1, 1, Conv, [256, 3, 2]]
  - [[-1, 43, 47], 1, Concat, [1]] # cat head P4
  - [-1, 2, A2C2f, [512, False, -1]] # 53

  - [-1, 1, Conv, [512, 3, 2]]
  - [[-1, 42, 33], 1, Concat, [1]] # cat head P5
  - [-1, 2, C3k2, [1024, True]] # 56 (P5/32-large)

  - [[50, 53, 56, 23, 24, 25], 1, Detect, [nc]] # Detect(P3, P4, P5)
