# parameters
nc: 1  # number of classes
# 非原论文， 复现参考  https://github.com/iscyy/yoloair  （参数量和计算量比原论文大很多，后期再修改）
scales: # model compound scaling constants, i.e. 'model=yolo12n.yaml' will call yolo12.yaml with scale 'n'
  # [depth, width, max_channels]
  s: [0.33 , 0.75, 1024] # summary: 272 layers, 9,284,096 parameters, 9,284,080 gradients, 21.7 GFLOPs

ch: 6

# ESNet
backbone:
  # [from, number, module, args]
  [
    [ -1, 1, Silence, [ ] ],  # 0-P1
    [ 0, 1, SilenceChannel, [ 0,3 ] ],  # 1-P1
    [ -1, 1, CBH, [ 48, 3, 2 ] ],    # 2-P2/4
    [ -1, 1, ES_Bottleneck, [ 96, 2 ] ], # 3-P3/8
    [ -1, 3, ES_Bottleneck, [ 96, 1 ] ], # 4
    [ -1, 1, ES_Bottleneck, [ 192, 2 ] ], # 5-P5/16
    [ -1, 7, ES_Bottleneck, [ 192, 1 ] ], # 6
    [ -1, 1, ES_Bottleneck, [ 384, 2 ] ], # 7-P7/32
    [ -1, 3, ES_Bottleneck, [ 384, 1 ] ], # 8

    [ 0, 1, SilenceChannel, [ 3,6 ] ],  # 9-P1
    [ -1, 1, CBH, [ 48, 3, 2 ] ],    # 10-P2/4
    [ -1, 1, ES_Bottleneck, [ 96, 2 ] ], # 11-P3/8
    [ -1, 3, ES_Bottleneck, [ 96, 1 ] ], # 12
    [ -1, 1, ES_Bottleneck, [ 192, 2 ] ], # 13-P5/16
    [ -1, 7, ES_Bottleneck, [ 192, 1 ] ], # 14
    [ -1, 1, ES_Bottleneck, [ 384, 2 ] ], # 15-P7/32
    [ -1, 3, ES_Bottleneck, [ 384, 1 ] ], # 16

    [[4, 12], 1, Concat, [1]],  # cat backbone P3   17
    [[6, 14], 1, Concat, [1]] , # cat backbone P4   18
    [[8, 16], 1, Concat, [1]],  # cat backbone P5   19

# # # 没有CenterPredictor、RGBAdjuster
    # [ [4, 12], 1, Fusion_Module, [128]],  # 17
    # [ [6, 14], 1, Fusion_Module, [128]],  #  18
    # [ [8, 16], 1, Fusion_Module, [256]],  #  19
  ]

#  CSP-PAN
head:
  [ [ -1, 1, Conv, [ 192, 1, 1 ] ], # 20
    [ [ -1, 19 ], 1, Concat, [ 1 ] ],  # cat backbone P4
    [ -1, 1, BottleneckCSP, [ 192, False ] ],  # 22 (P3/8-small)

    [ -1, 1, Conv, [ 192, 1, 1 ] ], # 23
    [ -1, 1, nn.Upsample, [ None, 2, 'nearest' ] ],
    [ [ -1, 18 ], 1, Concat, [ 1 ] ],  # cat backbone P4
    [ -1, 1, BottleneckCSP, [ 192, False ] ],  # 26

    [ -1, 1, Conv, [ 192, 1, 1 ] ], # 27
    [ -1, 1, nn.Upsample, [ None, 2, 'nearest' ] ],
    [ [ -1, 17 ], 1, Concat, [ 1 ] ],  # cat backbone P3
    [ -1, 1, BottleneckCSP, [ 192, False ] ],  # 30 (P3/8-small)

    [-1, 1, DWConvblock, [ 192, 5, 2 ]], # 31
    [ [ -1, 27 ], 1, Concat, [ 1 ] ],  # cat head P4
    [ -1, 1, BottleneckCSP, [ 192, False ] ],  # 33 (P4/16-medium)

    [ -1, 1, DWConvblock, [ 192, 5, 2 ] ],
    [ [ -1, 23 ], 1, Concat, [ 1 ] ],  # cat head P5
    [ -1, 1, BottleneckCSP, [ 192, False ] ],  # 36 (P5/32-large)

    [ [ -1, 20 ], 1, ADD, [ 1 ] ],  # cat head P6
    [ -1, 1, DWConvblock, [ 192, 5, 2 ] ],  # 38 (P5/32-large)

    [ [ 30, 33, 36, 38 ], 1, Detect, [ nc ] ],  # Detect(P3, P4, P5, P6)
  ]




#   - [ 6, 1, CenterPredictor, [128]]  #  21  ##融合层1
#   - [ [6, 16], 1, RGBAdjuster, [128]]  #  22
#   - [ -1, 1, SilenceList, [ 128, 0 ] ]  # 23
#   - [ 22, 1, SilenceList, [ 128, 1 ] ]  # 24
#   - [ 22, 1, SilenceList, [ 128, 2 ] ]  # 25
#   - [ [23, 24], 1, Fusion_Module, [128]]  # 26

#   - [ 8, 1, CenterPredictor, [128]]  #  27  ##融合层2
#   - [ [8, 18], 1, RGBAdjuster, [128]]  #  28
#   - [ -1, 1, SilenceList, [ 128, 0 ] ]  # 29
#   - [ 28, 1, SilenceList, [ 128, 1 ] ]  # 30
#   - [ 28, 1, SilenceList, [ 128, 2 ] ]  # 31
#   - [ [29, 30], 1, Fusion_Module, [128]]  #  32

#   - [ 10, 1, CenterPredictor, [256]]  #  33  ##融合层3
#   - [ [10, 20], 1, RGBAdjuster, [256]]  #  34
#   - [ -1, 1, SilenceList, [ 256, 0 ] ]  # 35
#   - [ 34, 1, SilenceList, [ 256, 1 ] ]  # 36
#   - [ 34, 1, SilenceList, [ 256, 2 ] ]  # 37
#   - [ [35, 36], 1, Fusion_Module, [256]]  #  38

#   - [ -1, 1, SPPF, [ 1024, 5 ] ] # 39
#   - [ -1, 2, C2PSA, [ 1024 ] ] # 40
# # YOLO11n head
# head:
#   - [-1, 1, nn.Upsample, [None, 2, "nearest"]]
#   - [[-1, 32], 1, Concat, [1]] # cat backbone P4
#   - [-1, 2, C3k2, [512, False]] # 43

#   - [-1, 1, nn.Upsample, [None, 2, "nearest"]]
#   - [[-1, 26], 1, Concat, [1]] # cat backbone P3
#   - [-1, 2, C3k2, [256, False]] # 46 (P3/8-small)

#   - [-1, 1, Conv, [256, 3, 2]]
#   - [[-1, 43], 1, Concat, [1]] # cat head P4
#   - [-1, 2, C3k2, [512, False]] # 49 (P4/16-medium)

#   - [-1, 1, Conv, [512, 3, 2]]
#   - [[-1, 25], 1, Concat, [1]] # cat head P5
#   - [-1, 2, C3k2, [1024, True]] # 52 (P5/32-large)

#   - [[46, 49, 52, 25, 31, 37, 21, 27, 33], 1, Detect, [nc]] # Detect(P3, P4, P5) ,偏移量，rgb预测




# # # 没有CenterPredictor、RGBAdjuster
#   - [ [6, 16], 1, Fusion_Module, [128]]  # 21
#   - [ [8, 18], 1, Fusion_Module, [128]]  #  22
#   - [ [10, 20], 1, Fusion_Module, [256]]  #  23
#   - [ -1, 1, SPPF, [ 1024, 5 ] ] # 24
#   - [ -1, 2, C2PSA, [ 1024 ] ] # 25

# # YOLO11n head
# head:
#   - [-1, 1, nn.Upsample, [None, 2, "nearest"]]
#   - [[-1, 22], 1, Concat, [1]] # cat backbone P4
#   - [-1, 2, C3k2, [512, False]] # 28

#   - [-1, 1, nn.Upsample, [None, 2, "nearest"]]
#   - [[-1, 21], 1, Concat, [1]] # cat backbone P3
#   - [-1, 2, C3k2, [256, False]] # 31 (P3/8-small)

#   - [-1, 1, Conv, [256, 3, 2]]
#   - [[-1, 28], 1, Concat, [1]] # cat head P4
#   - [-1, 2, C3k2, [512, False]] # 34 (P4/16-medium)

#   - [-1, 1, Conv, [512, 3, 2]]
#   - [[-1, 25], 1, Concat, [1]] # cat head P5
#   - [-1, 2, C3k2, [1024, True]] # 37 (P5/32-large)

#   - [[31, 34, 37], 1, Detect, [nc]] # Detect(P3, P4, P5)


# # # 没有CenterPredictor
#   - [ [6, 16], 1, RGBAdjuster, [128]]  #  21
#   - [ -1, 1, SilenceList, [ 128, 0 ] ]  # 22
#   - [ 21, 1, SilenceList, [ 128, 1 ] ]  # 23
#   - [ 21, 1, SilenceList, [ 128, 2 ] ]  # 24
#   - [ [22, 23], 1, Fusion_Module, [128]]  # 25

#   - [ [8, 18], 1, RGBAdjuster, [128]]  #  26
#   - [ -1, 1, SilenceList, [ 128, 0 ] ]  # 27
#   - [ 26, 1, SilenceList, [ 128, 1 ] ]  # 28
#   - [ 26, 1, SilenceList, [ 128, 2 ] ]  # 29
#   - [ [27, 28], 1, Fusion_Module, [128]]  #  30

#   - [ [10, 20], 1, RGBAdjuster, [256]]  #  31
#   - [ -1, 1, SilenceList, [ 256, 0 ] ]  # 32
#   - [ 31, 1, SilenceList, [ 256, 1 ] ]  # 33
#   - [ 31, 1, SilenceList, [ 256, 2 ] ]  # 34
#   - [ [32, 33], 1, Fusion_Module, [256]]  #  35

#   - [ -1, 1, SPPF, [ 1024, 5 ] ] # 36
#   - [ -1, 2, C2PSA, [ 1024 ] ] # 37
# # YOLO11n head
# head:
#   - [-1, 1, nn.Upsample, [None, 2, "nearest"]]
#   - [[-1, 30], 1, Concat, [1]] # cat backbone P4
#   - [-1, 2, C3k2, [512, False]] # 40

#   - [-1, 1, nn.Upsample, [None, 2, "nearest"]]
#   - [[-1, 25], 1, Concat, [1]] # cat backbone P3
#   - [-1, 2, C3k2, [256, False]] # 43 (P3/8-small)

#   - [-1, 1, Conv, [256, 3, 2]]
#   - [[-1, 40], 1, Concat, [1]] # cat head P4
#   - [-1, 2, C3k2, [512, False]] # 46 (P4/16-medium)

#   - [-1, 1, Conv, [512, 3, 2]]
#   - [[-1, 37], 1, Concat, [1]] # cat head P5
#   - [-1, 2, C3k2, [1024, True]] # 49 (P5/32-large)

#   - [[43, 46, 49, 24, 29, 34], 1, Detect, [nc]] # Detect(P3, P4, P5),偏移量